FreshnessDetector.pt (torch_old, 73739 bytes, 8 tensors)

conv1.weight f4 [16, 3, 3, 3]
00000000: 1a97 0ebe f7eb abbd 232c ac3d 9529 453e
00000010: 2e56 2dbe 2268 a13e 8849 7d3d a312 7cbe
00000020: 6666 84be 208d 053e b4df 483e 8021 ee3c
00000030: 924f 563e 77dc 073e 3dc0 ab3e 7353 f33d
00000040: 1896 233e b868 afbd fb27 08be 87d1 f8bd
00000050: 1b19 38be 94aa 53be 389a 86be a797 7abd
00000060: 8c49 c8bd 4e8b 08be 04b4 aabd c206 1c3e
00000070: a27d 6e3e ddd5 1fbe 666d 5e3e 1275 433e
00000080: d451 9bbc 7d11 523e 847b 573e cbd2 a8bd
00000090: f97e 413e 8c05 aa3d 2ed0 203e 646b 2cbe
000000a0: 3ea0 85bd c1e4 273d ddfd 0cbc 7e40 87bd
000000b0: 5cf5 013e 2eff 33be aaef 163e 0073 593e
000000c0: 89ba 093e dcbb 1fbe db96 213e 200b 2dbe
000000d0: 9515 8abd 3c31 c9bd 3b38 26be d0df 7cbe
000000e0: 9aa0 6fbd 4155 d7bd b338 bdbe 3e94 733e
000000f0: 9f3f 0b3e 10e8 4bbe 1c67 ae3c 6d4f 903e
00000100: 1108 1dbd 98d3 4c3e 513f 53bd dba1 36be
00000110: fc55 9a3e 5498 a63e c16d db3d a6a6 173e
00000120: 0f22 9c3d 9a93 aabd 6832 07be 3004 42be
00000130: a57c 4abe 2b67 afbd 7515 fc3d be1a 6e3d
00000140: d6c4 0ebd ef5e fd3d 03f8 6bbe 20f1 37be
00000150: ab05 5fbe 90d8 253e 646a bfbe 5a3a a5be
00000160: 3a7b 85bd e915 d2bd f91c 5f3e c990 a7bd
00000170: 2b06 963e ce1b 273e 668c 7e3e e0fe ab3b
00000180: b2fe cebc 5056 b83c 1404 1f3e bc6c 5bbc
00000190: b29a 82be eb2b c5bd 5351 9e3d 6f1a 563d
000001a0: 3819 9c3c 696d 153d d19e 1ebe b6eb ed3d
000001b0: ae3d a53d a6bf 133e 56ba 983d d4d7 403e
000001c0: cce8 573e 6da2 2bbd f4a9 4b3b 37ca 523c
000001d0: f174 313e 49ce c3be dbfa d1be 8157 56be
000001e0: 9ef6 e3be 43e5 aebe aab5 07bf d3e5 73be
000001f0: 8bf5 6abe 0879 77be 296b a23e 07ff 803e
00000200: 1903 8f3e 76fa 273e 1c79 d93e 23d6 92bc
00000210: 9f61 7b3e 3124 103e 26e4 8a3e d0e4 28be
00000220: f52f 003c 2175 c33d 055b 103e 9263 fb3d
00000230: 5a4d 59be eb47 203e 1131 abbd b494 94bd
00000240: 9d57 16bd 6b6e 4cbe 4f20 0f3e 3628 0abe
00000250: 08ba 3ebe 43b7 eb3d b440 09be cd6a 853c
00000260: 1a7f b23d 3382 4bbe 6ca2 bb3c 7345 76be
00000270: 3a4d 07bd 2870 20be ecb0 c73d 5330 58be
00000280: 1488 09be 2e93 893c 636c 71bd b43f 88bd
00000290: f16e f73d 36dd 4abe f9ee 773d f097 c5bd
000002a0: 8554 d8bd ed4f 8a3e 4da0 26be 09c9 c83d
000002b0: cd91 833c 31d1 f73d 0609 37be ed0d 10be
000002c0: 3b26 08bd fbcc 1ebe 5d60 873e 884c 31be
000002d0: bd40 143e 5b5c 03bd e82a 4c3c 1726 0f3e
000002e0: 21fa b738 fa43 98bc 717b a1bd a4f2 773e
000002f0: 6524 2abe 2292 cbbd 09c5 1cbe 87e9 abbc
00000300: 23cf babd f9a8 25be 5a1b bfbb c4b6 843d
00000310: 5381 da3d 7efd 1fbe e004 223d 1982 8b3d
00000320: b600 c2bd a014 47be e3d4 4cbe 1d11 c03c
00000330: 81e0 29be 170e 533d 300d 0bbe 9bcf 21be
00000340: d9da 55be f595 34bd 48a2 b5bd 44d0 ca3d
00000350: 7237 5e3e 87b0 923d 1f62 b4bd 7a16 e33d
00000360: 40af f13d da3d 08be ac08 933d 2aaf f9bc
00000370: 6075 19be 1ceb 9cbd 148e 8b3b 9821 7cbe
00000380: e3b0 923d a125 de3d ed2e de3d d778 b9bc
00000390: 089a e7bd d645 a93b 5a45 173e 62c7 9abd
000003a0: 4392 adbd 3924 2d3e 61e4 533e cfdd 46be
000003b0: 347e 053e 447e 02be d2da 143e f0f2 383e
000003c0: c10f d1bd 6c73 5d3d d211 f93d 9a9c 013e
000003d0: 0a4f 02be c04f 54bd 56ee 9f3c 7a91 37be
000003e0: 8e11 bcbd 5bf1 6b3d 35ef 2e3c 9dcf dabd
000003f0: 625e 993d 141e db3d e9b1 0ebe 9ec0 47be
-0.13924828 -0.08394616 0.08406856 0.19254144 -0.16927406 0.3152476 0.061837703 -0.24616484
-0.25859374 0.13042116 0.19616586 0.029068708 0.20928791 0.13267694 0.33545104 0.11881151
0.15975225 -0.085648954 -0.13296501 -0.12149339 -0.17978327 -0.20670539 -0.26289535 -0.061179783
-0.09779653 -0.1333439 -0.083351165 0.15236953 0.23290113 -0.15608926 0.2172142 0.19087628
-0.018959917 0.20514484 0.21043211 -0.082433306 0.18896092 0.08301839 0.15704414 -0.16837841
-0.065247044 0.04098964 -0.008605448 -0.06604098 0.12691253 -0.17577812 0.14739862 0.21235275
0.13450064 -0.15599006 0.15780203 -0.16898775 -0.06742398 -0.09823844 -0.16232388 -0.24694753
-0.05850277 -0.10514308 -0.3695732 0.23787019 0.13598488 -0.19912744 0.0212894 0.28185597
-0.03833777 0.20002592 -0.051574055 -0.1783518 0.30143726 0.32538092 0.10714293 0.14809665
0.07623684 -0.08328934 -0.13202822 -0.1894691 -0.1977411 -0.085645996 0.1230878 0.058130972
-0.034855686 0.12371623 -0.23043828 -0.17963076 -0.21779506 0.16195893 -0.37385857 -0.3227108
-0.06517644 -0.10258085 0.21788396 -0.081819125 0.2930158 0.163192 0.24858245 0.0052488893
-0.025267933 0.022502095 0.155289 -0.0133926235 -0.25508648 -0.09627517 0.07730355 0.052271303
0.019054994 0.036481295 -0.15490271 0.11617224 0.08068405 0.14428577 0.07457416 0.18832332
0.21084899 -0.04190295 0.0031076642 0.012865595 0.17329766 -0.3824332 -0.410117 -0.20931818
-0.4452409 -0.34159288 -0.5301157 -0.2381814 -0.2294523 -0.24167264 0.31722382 0.2519457
0.2793205 0.16404137 0.42475212 -0.017924374 0.24548958 0.14076306 0.27127188 -0.16493535
0.007823934 0.09543825 0.14097221 0.12274851 -0.21220914 0.15652435 -0.08358968 -0.07254925
-0.03670465 -0.19963996 0.13977169 -0.13491902 -0.18625653 0.11509564 -0.13403589 0.016286278
0.08715649 -0.19873886 0.022904597 -0.2404993 -0.033032633 -0.15667784 0.09750542 -0.21112184
-0.13430816 0.016793814 -0.058941256 -0.066527754 0.12081707 -0.19810948 0.060530636 -0.096481204
-0.10562996 0.27014104 -0.16272087 0.098039694 0.016060734 0.12100447 -0.17874536 -0.14067812
-0.033239584 -0.15507881 0.26440707 -0.1731435 0.1447782 -0.0320705 0.0124614015 0.13979374
8.77271e-05 -0.018587101 -0.07884873 0.24213654 -0.16615446 -0.09939982 -0.15309538 -0.020985378
-0.091215394 -0.16177739 -0.005832118 0.06480172 0.10669198 -0.15624043 0.03955543 0.068119235
-0.09472792 -0.19441462 -0.20003085 0.02344566 -0.16589548 0.05152711 -0.1357925 -0.15801851
-0.20884265 -0.044088323 -0.08868843 0.09903005 0.21700838 0.07162576 -0.088077776 0.110882714
0.118010044 -0.13304844 0.071793884 -0.030479033 -0.14986181 -0.07662031 0.0042588804 -0.2462219
0.07162645 0.10847021 0.10848794 -0.022640629 -0.11308676 0.005165796 0.1477255 -0.075575605
-0.08475163 0.16908349 0.20692588 -0.19420551 0.13036424 -0.12743479 0.14536598 0.18061423
-0.10208083 0.054065153 0.12161602 0.12657395 -0.12725464 -0.051833868 0.019522827 -0.17926589
-0.09183036 0.05760322 0.010677149 -0.1068413 0.07488705 0.10699096 -0.13935055 -0.19507071

conv1.bias f4 [16]
00000000: 5895 15be 93ef 49be fa8d da3d 9a46 8d3d
00000010: b03f 913e c394 4c3e d0c0 333d 03b9 1dbd
00000020: 2b4f 4abe 27c6 1d3d d5f8 533e 27f0 a13c
00000030: e604 70be 4fd0 bc3c 0e57 d5bb 7e2b 1c3e
-0.14607751 -0.19720297 0.10671611 0.06898232 0.28368902 0.19978623 0.043885052 -0.03850652
-0.19756763 0.03851905 0.2070039 0.019767834 -0.23439369 0.023048548 -0.006510622 0.15250966

conv2.weight f4 [8, 16, 3, 3]
00000000: 82fc cf3b 6753 8b3d fcfd 623c fd72 afbd
00000010: b112 993d ed14 2ebd 98c5 4ebd d286 e93d
00000020: e87e a43d 915b 94bb 7c08 2c3d 1ac7 b03d
00000030: 87fa 0cbe f829 a23d 9df0 f83d fefc 44bb
00000040: ee54 5e3c 42d2 e6bc 472f acbd 46ca 1ebd
00000050: d2c1 57bd e0db 01be 30ac 823b 66f8 e2bd
00000060: fceb 713d 3b14 fb3b f998 2fbc f798 4dbd
00000070: 09ff cdbd 04ba 133d 8807 dabd 4ef5 eebc
00000080: bceb 99bd fdac 763b 2437 a03d a8c1 a5bc
00000090: b4d6 2ebe 37e2 8bbd 4d40 943d 3689 04be
000000a0: 11d2 8fbd 540d 17be b33d 12bd 8c6b 30be
000000b0: 0577 63be b128 a83d 931d 923d e01c 193e
000000c0: c518 123e eaa3 143e ef76 563d 48e1 7bbc
000000d0: f462 253e 04da 1f3d 8ede c3bd d47c 8a3b
000000e0: 0c32 ddbc c822 b4bd 7dda b2bd 3358 5dbd
000000f0: 5403 37bd 1c1d febd 5397 1ebd 3913 673d
00000100: d1f6 ba3d 1fd9 6d3d 0c73 773d 0c4f 55bd
00000110: 12d5 8a3d 8579 1f3d 453d 81bc b378 9d3d
00000120: 2662 0dbe 6f97 043d 6a87 fc3d f740 44be
00000130: 3342 73bb 30c1 0abc 10f4 14bd 3ddd 95bc
00000140: 6a71 34bd b73a 873d 1adb 923c 13b1 32bd
00000150: 1e1a bc3d dda1 c93c 733b 5dbd 9f06 aebc
00000160: dd5e 4e3d 261e cb3d a95c 6fbd f3a0 e0bd
00000170: 37b3 023c 851e e5bd 4f4f 3b3c eccf ffbc
00000180: 6573 483d 26e1 9cbc 3a77 9f3c 98da ad3c
00000190: 0911 b5bd fcb5 9c3d 6c09 5ebd 88f3 a4bd
000001a0: 6a01 d43d 3360 c7bc 8097 ca3c 30c8 003e
000001b0: b491 7abc 1dff 923b 3574 673d 996d 56bd
000001c0: 1795 fd3c 7455 c5bd 372e d1bd d2ab 0abe
000001d0: ba13 763c 0144 89bb 0496 573d be01 ea3c
000001e0: 8419 40bd 81b7 8cbc 8e42 8e3d 5a16 c53d
000001f0: a6d7 e43d 6946 2ebd 2af1 133d 1268 f6bc
00000200: b359 483d 25e6 edbc 713e 86bd b0d5 b03c
00000210: 5cca e93d 2138 c2bd fde8 a13c b40d b03d
00000220: 252c ea3d eab9 4f3d 607c 37bd d4ef 823d
00000230: c4bd f23c a3d1 b13d cf02 dd3d 03a3 ac3d
00000240: a80f f0bd dfba 15be 8c4e 12be 9f04 23be
00000250: ad81 dcbd 4c0a 6ebd 5f6e 99bd 2ebf b6bd
00000260: 45c0 f23c 069d 963d 9c01 043e dd8a 423d
00000270: 3a17 98ba 2af6 f53d 4bc7 403d 1048 56bd
00000280: b21e 6b3d 678a 8fbd 83c8 f0bc d50a a8bd
00000290: 6e16 32be 7a8b 28be 8960 21be da73 34be
000002a0: fdeb 0abe 20db 27be c277 60bd d732 6abd
000002b0: 060c 61bd 833f 13be a644 7ebe 1ec7 52be
000002c0: 14b7 c3bd b63d 02be f547 29bd c115 263d
000002d0: 7756 463c 07d7 2dbd 18d4 e9bd 5272 f73d
000002e0: 36f2 e93c 9d70 16be c5db 89bc 294d eebc
000002f0: c1d0 bdbd c874 b83c 7ccd ab3d fe56 953d
00000300: 8c01 b3b5 3e6a e23d 2d22 813d 9cfc a0bd
00000310: 3078 813d 5e68 883d 3e1b 7a3d f03f 9d3d
00000320: 1908 f7bb 9f98 88ba 242b 3a3d 14f9 243b
00000330: 543a 9cbd a2d3 b4bd 8140 96bd 756b 663c
00000340: d3cc 03bd 2376 8abc eb3c b8bd 93a0 19bd
00000350: 79f8 4a3d e26a a3bd 58e0 853d 987d de3b
00000360: d4bd f8bc 9db6 9abd 8c22 a6bd 96cf efbc
00000370: 4a8a bfbc f5c9 10bc 5c45 75bd 3274 943c
00000380: 1757 3f3d 6fd0 acbd 6129 10bc 7ce8 0fbd
00000390: 3fb7 60bd 918d ef3d 486d 1a3d 7c49 bcbd
000003a0: e3bf 9f3c 270d 053e 0db3 11be 0f45 d0bc
000003b0: 192d 11bd 23aa 653d ccea 99bd 0912 b2bc
000003c0: 69a2 a9bb 4e36 ba3c bf06 b8bd 14f8 42bd
000003d0: b9c2 48bd caa3 003d afc7 04bd 9271 d2bc
000003e0: e181 9cbb 82ec febd 0433 96bd b983 6b3b
000003f0: 2d1f 2cbd 833f cfbd 83b4 f2bc 56d1 01bd
0.00634724 0.06803017 0.0138545 -0.08566854 0.07474268 -0.042500425 -0.05048141 0.11402668
0.08032018 -0.004527517 0.04200028 0.086317256 -0.13767444 0.07918161 0.12155268 -0.0030058022
0.0135700535 -0.02817643 -0.08407455 -0.03876712 -0.052675076 -0.12681532 0.0039878115 -0.110825345
0.059062943 0.007662324 -0.010717624 -0.050194707 -0.1005841 0.03606607 -0.10645968 -0.029169705
-0.07515666 0.003763973 0.07823017 -0.020233944 -0.1707409 -0.068302564 0.07238827 -0.12942967
-0.07022489 -0.14751178 -0.035703372 -0.17228526 -0.22213371 0.08210886 0.07134547 0.14952421
0.14267261 0.14515653 0.052359518 -0.015373535 0.16151029 0.039026275 -0.09563933 0.0042263065
-0.027001403 -0.087956965 -0.087330796 -0.05403919 -0.04468091 -0.12407896 -0.038718533 0.056414817
0.09129108 0.05806839 0.06041245 -0.052077338 0.06778921 0.03893425 -0.015776286 0.07689037
-0.13806972 0.03237098 0.12330516 -0.19165407 -0.0037118315 -0.008468911 -0.03636557 -0.018293971
-0.044053473 0.06602996 0.017926741 -0.043625902 0.09184669 0.024613315 -0.054011773 -0.021243392
0.050383437 0.0991786 -0.058437977 -0.109681986 0.007977298 -0.11187462 0.011432483 -0.031227075
0.048938174 -0.019150328 0.019466031 0.021222398 -0.0884114 0.07651898 -0.054208204 -0.080542624
0.10351832 -0.024337864 0.024730444 0.12576365 -0.015293527 0.0044859783 0.056507308 -0.052350614
0.03095488 -0.096354395 -0.10213893 -0.13542107 0.015019352 -0.004189015 0.0526333 0.028565284
-0.046899334 -0.017177345 0.06946288 0.09623404 0.11173944 -0.042547617 0.036118664 -0.030078921
0.04891367 -0.029040406 -0.065548785 0.02158627 0.1141555 -0.09483362 0.019764418 0.08596364
0.11434201 0.05071441 -0.044796348 0.063934 0.029631503 0.08682563 0.10791551 0.084295295
-0.11721736 -0.14622067 -0.14287776 -0.15919732 -0.10766921 -0.05811529 -0.07491755 -0.089231834
0.029632697 0.073541686 0.12891239 0.04749571 -0.0011603602 0.12009843 0.04706506 -0.052314818
0.05740232 -0.0700882 -0.029392486 -0.08205191 -0.17391369 -0.16459456 -0.15759481 -0.17622319
-0.13566585 -0.16392183 -0.05480171 -0.05717739 -0.054943107 -0.14379697 -0.24830875 -0.2058377
-0.09556404 -0.12718853 -0.04132839 0.04054809 0.012105576 -0.042441394 -0.11417407 0.12082352
0.028557878 -0.14691396 -0.016828427 -0.029089527 -0.09268332 0.022516623 0.083888024 0.07291983
-1.333699e-06 0.1105542 0.06305347 -0.078606814 0.06321752 0.066605315 0.061061136 0.07678211
-0.007538807 -0.0010421461 0.0454513 0.0025172876 -0.07628313 -0.08829428 -0.07336522 0.014063706
-0.032177757 -0.016902035 -0.08995994 -0.03750665 0.04955337 -0.07979371 0.06536931 0.0067898743
-0.030363955 -0.07554362 -0.08112058 -0.02927379 -0.023381371 -0.008837213 -0.0598806 0.018121812
0.046713915 -0.08438193 -0.008798928 -0.035133824 -0.054862257 0.116969235 0.037701875 -0.091937035
0.019500678 0.12993298 -0.14228459 -0.025423555 -0.0354434 0.05607046 -0.07515487 -0.021737115
-0.0051768315 0.022730973 -0.08985662 -0.047599867 -0.049013827 0.0314062 -0.032416996 -0.02568892
-0.004776225 -0.12447454 -0.07333949 0.0035936667 -0.04202192 -0.10119536 -0.02962709 -0.03169378

conv2.bias f4 [8]
00000000: 6397 1f3e a7da b23b 4e9d 7b3d fa3f de3d
00000010: 2e8a a63d 9d05 51be 5b5f 733d f418 b7bd
0.15585093 0.0054581943 0.061429314 0.10852046 0.081318244 -0.20412298 0.05941711 -0.08940306

fc1.weight f4 [32, 512]
00000000: 4711 823c e67f 18bd f6bd 483d 71f3 06bd
00000010: b74f da3c e9da 3b3d 5e21 8e3d 4da3 01bd
00000020: 9e7f fdbc 393c c03b 8873 02bc bc9d 62bc
00000030: 7162 ae3c db41 dabc 5a28 55ba e408 343d
00000040: a814 003c 1877 c839 fb40 dcbb c1e8 323c
00000050: 6643 bbbc 13e9 2abb 0a10 e23c 4eba b9bb
00000060: f5d3 163d 1386 f03c 1e4d 0dbc 18bf 35bc
00000070: 6140 df3c 4b07 123d 7d7a f8bb f734 aabb
00000080: c612 793c 7fdb 76bc 8f1c fabb 183c 0d3d
00000090: 4cde 803d d68f 0d3d 4a56 133d 259d 8bbc
000000a0: 6ccd 0fbd d80e d8bb e71a 8abc c885 c43c
000000b0: 5c5d 5c3d 163f 053b 9788 29bd c548 84bc
000000c0: f1dd e1bc 94c3 3f3d 822b 233d 54c7 313d
000000d0: 3020 483d 00f4 1ebd c385 f2bc 1c6d dd3b
000000e0: 744a bf3c ca35 6cbb 20c1 15bb dfbd 30bc
000000f0: 4dda f4bc 7d2e 60bb 7f3a 3cbd 814b 3bbc
00000100: 8e82 fcbc bc1d 64bb 5cd7 123d d5e7 9f3c
00000110: 3e1f 813d e149 df3c 1487 bcbc 048e 10bc
00000120: abc7 c6bc f2d8 34bb c633 313d 17f0 1d3c
00000130: a5ef 8bbc ef84 94bb aa20 2abd de42 a13b
00000140: 33e3 3c3d 6a42 85bc bb29 133c 534c bf3c
00000150: 48e8 913d 4acf a23c bf6c 4a3d c6b4 bbbb
00000160: 106c efbc 2f6e 24bc 72d4 983c a777 843c
00000170: d6b5 8d3d 47c9 883d 2cb6 8ebb d5f5 323d
00000180: a937 10bd 9992 47bc f26c 013c 7db4 2b3c
00000190: aee0 183d 0674 223d 0272 0e3d 4936 423d
000001a0: 095c abbc cb3e 433d 4dcf 1c3c 7269 5b3d
000001b0: 79a7 893d 1984 af3c ffb0 7abc efe8 74bc
000001c0: 1675 b43b a290 85bc 31bf 383b efb3 743d
000001d0: 375c f03b acb3 d7bc 4cf0 ad3c 587c a2bc
000001e0: 0b56 5a3c 683f 033d 290d 6f3c 8077 3e3a
000001f0: f1dc 12bd b362 49bc 1057 7ebc 2f6f 3b3c
00000200: 678d 94ba fc95 143c b9d7 b93c f53f dcbb
00000210: 530f 6ebc c9e9 4ebd 3ae7 88bc 7b69 2e3c
00000220: 4491 f9bc 6ea7 2a3d 8c50 f83b db74 d5bc
00000230: c285 aebc 7773 003d 6c39 2bbd 4703 a33c
00000240: 13b0 22bd 2d77 c2bb 863c ac3c a7c0 643d
00000250: ae00 ebba c614 aebc 11ca e1bb 8655 263c
00000260: 9941 01bd aa8f e9bb 7e20 f7bc 1728 403b
00000270: b02f 3e3d 7b42 0a3d d865 b2bc 0222 eb3c
00000280: 47b6 61bb 8a0b ab3c 39a0 643b c190 8c3c
00000290: cbcd b23c 1a14 103d 6662 f33c c5cf fa3c
000002a0: 69f5 813c bde1 4eba 76e0 b5bc 2a25 03bd
000002b0: 82cd 24bd dfad 3e3d 15b7 c03c 0c7e 7abc
000002c0: 7a84 243d 0e1f dbbb 210a 1cbd 14b7 013d
000002d0: b0e9 0a3d 2950 72bc fa49 fc3c dd76 4fbc
000002e0: e062 07bd 88be 173d dc5b 0839 429e 993c
000002f0: 95eb 4d3d 0199 2cbd f955 483c d29a 173d
00000300: d1ab 09bd 1c2f 2d3d 05fb 8dbc 28d4 8dbc
00000310: 299d 963c 6de2 2bbc 8a36 bd3c 7da1 9cbc
00000320: 69a8 293d ff29 cf3a f718 0abd be3a aabb
00000330: 0fb9 9dbc 2605 e8bc 508f b33c 4e76 2f3d
00000340: edfc 013d faaf ddbc 5b83 453d d979 463d
00000350: 5a4a 8c3c ec7e 213d 4c76 c53c b25c 303d
00000360: 4273 03bd cb81 293d fbc5 81bc 4fe5 ed3c
00000370: 7cac 003d 3cb8 383c 5126 8b3b 29d1 043d
00000380: d3a6 813c 52a9 ffbb 5fb0 983c a17f 113d
00000390: 7b68 aa3c 1f35 f23c 3577 373d 40da 8b3b
000003a0: a698 8b3b 92ac 1e3d 354a 5bba 1dda 653c
000003b0: 541d f4bb 2510 7e3c 677f 703c b573 273d
000003c0: 6dac 983c 64c2 a6bc 5689 ccbc b250 a93c
000003d0: da7e 423c 7bd3 9e3c 15bd 6bbc 90b2 ea3b
000003e0: ac52 e2bc 955b c23c cf39 c73c 0f6c 753c
000003f0: 3c3c 1c3a 825e 083d 1022 093d 50f9 5fbc
0.01587738 -0.03723135 0.049009286 -0.032947008 0.02664934 0.045863066 0.06939958 -0.031649876
-0.030944642 0.005866554 -0.007962115 -0.013831552 0.021287175 -0.02664273 -0.0008131318 0.04395379
0.007817425 0.00038235704 -0.0067216135 0.010919751 -0.022859287 -0.0026078864 0.027595539 -0.005667961
0.03682323 0.029360807 -0.008624343 -0.011092924 0.027252378 0.035651486 -0.007582961 -0.005194302
0.01520223 -0.01506698 -0.007632799 0.034481138 0.062924 0.034561 0.035970964 -0.017042706
-0.035108015 -0.0065935664 -0.016858531 0.023989573 0.053799972 0.0020331792 -0.041390028 -0.01614798
-0.02757165 0.046817377 0.039836414 0.043402985 0.04885882 -0.038806915 -0.029604798 0.0067573916
0.023350932 -0.0036042803 -0.0022850707 -0.010787456 -0.02988925 -0.0034207397 -0.045954224 -0.011431576
-0.030823972 -0.0034807762 0.035849914 0.019519726 0.06304787 0.027256908 -0.023013629 -0.008822922
-0.024265131 -0.002759513 0.043262266 0.009639761 -0.017082045 -0.0045324485 -0.041535057 0.0049213013
0.04611511 -0.01626702 0.008982117 0.023351824 0.07124382 0.019874234 0.049420115 -0.005728337
-0.029226333 -0.010036035 0.01865599 0.016170336 0.06919448 0.066790156 -0.0043552127 0.043691475
-0.03520933 -0.012180948 0.00789951 0.0104800435 0.037323646 0.03966143 0.034776695 0.04741505
-0.02091791 0.047667306 0.009570909 0.053567357 0.06721396 0.021425294 -0.015300988 -0.014948114
0.005507122 -0.016304318 0.002819013 0.05974191 0.0073352116 -0.026330791 0.021232747 -0.019834682
0.013326178 0.03204289 0.01459054 0.00072657317 -0.035855237 -0.012291598 -0.015523687 0.011440082
-0.0011333645 0.009068962 0.022685872 -0.0067214915 -0.014530021 -0.050515924 -0.01671182 0.010645266
-0.030464776 0.04166358 0.0075779613 -0.026056698 -0.021304015 0.031360116 -0.04180281 0.019899024
-0.0397187 -0.005934617 0.021024954 0.05584779 -0.001792928 -0.02125014 -0.0068905433 0.010152226
-0.0315567 -0.007127722 -0.03016686 0.002932077 0.046432197 0.033754807 -0.021777079 0.02870274
-0.003444092 0.020879526 0.003488554 0.017158868 0.021826645 0.03517542 0.029710006 0.03061665
0.015864091 -0.0007891914 -0.022201758 -0.032017864 -0.04023505 0.046552535 0.0235248 -0.015288841
0.040165402 -0.0066870516 -0.038095597 0.031668738 0.033914268 -0.0147896195 0.030796994 -0.012662617
-0.03305328 0.03704694 0.00013004191 0.018752221 0.050273497 -0.042138103 0.012227529 0.037012883
-0.033611123 0.042281255 -0.01733161 -0.017313078 0.018385487 -0.010490996 0.023097295 -0.019119972
0.041420374 0.0015805362 -0.033715215 -0.005194991 -0.019253282 -0.028322767 0.021918923 0.042837434
0.03173535 -0.027061451 0.048220973 0.048456047 0.017125297 0.039427683 0.02410426 0.04305715
-0.03209234 0.041383546 -0.015841475 0.029040007 0.031414494 0.011274394 0.004246511 0.032426033
0.015826618 -0.007802167 0.018638788 0.035522107 0.020801773 0.029566346 0.04479142 0.004267961
0.0042601405 0.038738795 -0.0008365245 0.014029053 -0.0074497852 0.015506779 0.014678813 0.04088183
0.018636907 -0.020356365 -0.02496783 0.020668361 0.011871064 0.019387951 -0.014388342 0.0071623996
-0.027627312 0.02372531 0.024319557 0.014979376 0.00059599034 0.033293255 0.03347975 -0.013670281

fc1.bias f4 [32]
00000000: d7b6 e13c c3d7 a83c 3ba2 8dba 6233 e43c
00000010: 88b7 593d 1fc9 bd3c 3a07 0d3d 5fa9 173d
00000020: f843 8c3c 1f9f 3abd eed3 0d3d eb17 14bd
00000030: f161 7b3c 093e 073d 6173 263d 2777 46bd
00000040: 5277 fd3c 880a 233d dd30 c839 77ee df3c
00000050: c365 3dbc 049c 47bd c61c 0a3d 4796 1dbd
00000060: 764b e4bc 239a babc a095 7bbd dbae 0ebb
00000070: f169 0fbc 71ca 433d 91f0 61bd 7267 b93c
0.027553005 0.020610696 -0.0010805795 0.027856532 0.053153545 0.023167191 0.03443072 0.03702676
0.017122254 -0.045561906 0.03462594 -0.036155622 0.015343175 0.033018146 0.040637378 -0.048453476
0.030940685 0.039804965 0.0003818338 0.027335389 -0.011559906 -0.048732772 0.033718847 -0.038473394
-0.027868014 -0.022778576 -0.06142199 -0.0021771702 -0.008753286 0.047800485 -0.055161063 0.022632334

fc2.weight f4 [2, 32]
00000000: beb2 3b3e e475 c33e af3d 9a3d aeff 943e
00000010: c3ba 3d3e 7b44 683e af79 663d bec7 ee3d
00000020: 9be7 9b3e a33a 01bd bae4 bc3e ac20 8cbe
00000030: aeb0 113e 729b 94bd 38de ab3d 48df 99be
00000040: 128d b33e 4f84 433e 7da5 643e 68b1 cb3d
00000050: 0c6b 873e e1e2 81be 9d10 ec3e 9e35 1fbd
00000060: 3cb8 4cbe f2ec 44be 63dc 0abf 0355 1fbe
00000070: 92eb d0be b2fe f23d 5da1 fcbe 7e6c 32be
00000080: 9a9e 71be b2f0 b0be 594d 843d a563 12be
00000090: 7d0a 81be c88b 42be c9e6 ba3c 2556 933d
000000a0: 0227 28bd 19b2 0a3d a54c e7be d4e8 af3e
000000b0: e76d 8ebe c4b8 3a3e e312 7ebd 7bac 7d3e
000000c0: d9d6 13be 3099 2abe 22ce 68be d8b4 433e
000000d0: 91fe e93c 9b06 6e3e 7c6f efbe 8234 d3bb
000000e0: a16d b2bd ebff 9e3e 7c00 043f bf67 4a3e
000000f0: b8d1 923e 02f0 f0bb 25d1 f33e 5673 e0bd
0.18329903 0.3817588 0.075312965 0.29101318 0.18528275 0.22682373 0.05626839 0.116591915
0.30450138 -0.03155006 0.36893255 -0.27368677 0.14227554 -0.07256211 0.08391994 -0.30053163
0.35068566 0.1909344 0.22328754 0.09945947 0.26448858 -0.25368407 0.46106425 -0.038869493
-0.19992155 -0.19231012 -0.54242533 -0.15559773 -0.40804726 0.118649855 -0.4934186 -0.17424199
-0.23595658 -0.34558636 0.064600654 -0.14295824 -0.25203314 -0.18998635 0.022815125 0.07194165
-0.041052826 0.033861253 -0.45175663 0.3435732 -0.27818224 0.18234545 -0.06202973 0.24772827
-0.14437427 -0.16659999 -0.22734883 0.19111955 0.02856377 0.23244707 -0.46764743 -0.0064454684
-0.08712316 0.31054625 0.5156324 0.19766138 0.28675628 -0.00735283 0.47620502 -0.109594986

fc2.bias f4 [2]
00000000: 351b d63d 2514 53be
0.10454408 -0.20613153
